best_model.pth (torch_old, 457875 bytes, 20 tensors)

encoder.0.block.0.weight f4 [64, 3, 3, 3]
-0.48723066 -0.10275934 0.14039673 -0.2809401 -0.048880268 0.063596785 0.27255163 0.24269865
0.10135736 -0.39829424 -0.06339223 0.11784428 -0.11245708 0.0096338345 0.027397234 0.28665918
0.15272407 -0.037956677 -0.4443313 -0.060937863 0.094935894 -0.0215217 0.08181247 0.008240057
0.3068994 0.14317502 -0.09505723 0.11357951 0.12430939 0.13719171 0.07378414 0.074694
0.10410181 0.025552467 -0.022234049 0.037362516 0.013946562 0.021136522 0.024279546 -0.044758447
-0.07481998 -0.04633694 -0.10428753 -0.19264427 -0.13023506 -0.053177416 -0.060543634 -0.045847017
-0.086341806 -0.12700105 -0.10037713 -0.10023477 -0.1577532 -0.11409761 0.4872793 0.22995809
-0.41167846 0.63799536 -0.050565258 -0.66463476 0.3835051 -0.25499752 -0.5094689 0.05949127
0.09473872 -0.08868163 0.1482159 0.0035531302 -0.07480575 0.060036622 -0.053657528 -0.0357496
-0.45989347 -0.14823663 0.33840665 -0.46264902 -0.024233412 0.48420098 -0.26436782 0.12811978
0.44071212 -0.15852953 -0.1606018 -0.16043347 -0.14631058 -0.14620003 -0.14811692 -0.13273725
-0.11341936 -0.12150131 0.020171432 0.028427491 0.021334505 0.047189977 0.056937065 0.0361739
0.06584491 0.108990595 0.069987044 0.05456748 0.04548083 0.045037705 0.07843741 0.08052606
0.062242385 0.107245535 0.13988662 0.10339584 -0.10524123 -0.11439987 -0.08921695 -0.1746392
-0.1941379 -0.15929805 -0.16224135 -0.17089139 -0.14915508 0.17756237 0.17361405 0.1258879
0.15600276 0.15212977 0.09244985 0.16685505 0.17334701 0.106630474 -0.056139156 -0.04378771
-0.07333373 -0.018450068 -0.0018873654 -0.038405698 0.008342194 0.024027262 -0.014653418 0.08123511
-0.0949636 -0.16684882 -0.21704869 -0.119253024 0.1336412 -0.031867083 0.016057175 -0.036692273
0.17973413 0.053735215 -0.06781359 -0.039053965 0.05675333 0.21534352 0.07489247 0.10668635
-0.0011096485 0.0828111 -0.006112645 -0.088423744 -0.10066078 -0.043231737 0.110230945 0.01850818
-0.0015662668 -0.064454205 0.020913364 0.021065546 0.019702643 0.013000336 0.014529598 0.013697196
0.015115258 0.0162022 0.01724384 0.0035899847 0.008493838 0.0065403273 1.5314881e-06 0.0059616687
0.0043064165 0.005191741 0.0105264 0.010936994 -0.009166506 0.00095916423 0.00044937618 -0.0096277455
0.0016920172 0.0018272217 -0.0036057022 0.0070843026 0.008417536 -0.056535 0.024811598 0.06731821
-0.07852902 -0.025988465 0.006461987 -0.037946414 0.020561155 0.038545337 0.029627627 0.018922083
-0.024599267 0.043413542 -0.0050161453 -0.09490614 0.1051148 0.090452716 0.0017687709 0.012845773
-0.03340503 -0.09960274 0.031785756 -0.05198697 -0.17192425 0.078662045 0.044749025 -0.059357263
-0.008677122 -0.071632065 -0.14021848 -0.039419275 -0.1365766 -0.18132018 -0.055739727 -0.11589807
-0.10490356 0.12168517 0.06581999 -0.0084802685 0.066148385 -0.029920919 -0.08511786 0.010330869
-0.041664336 -0.039862312 0.10737121 0.07152541 0.018431457 0.06318937 -0.009992612 -0.059095275
0.030600952 -0.024248384 -0.035644148 0.050659835 0.01805998 0.020041209 -0.0059222607 -0.06583436
-0.04042858 -0.021137575 -0.07473567 -0.03983148 -0.017675787 -0.053465113 -0.03105637 -0.064476185
00000000: 4c76 f9be 7d73 d2bd 29c4 0f3e 61d7 8fbe
00000010: ad36 48bd 083f 823d e38b 8b3e ff85 783e
00000020: 7394 cf3d 39ed cbbe c9d3 81bd 5858 f13d
00000030: e64f e6bd 3bd7 1d3c 2a70 e03c fec4 923e
00000040: b363 1c3e 7678 1bbd 647f e3be fb99 79bd
00000050: c06d c23d 474e b0bc 4c8d a73d 4e01 073c
00000060: eb21 9d3e 799c 123e 5dad c2bd 609c e83d
00000070: ec95 fe3d fc7b 0c3e 241c 973d 2bf9 983d
00000080: 5433 d53d 6853 d13c 2e24 b6bc 7009 193d
00000090: 1f80 643c 8026 ad3c e6e5 c63c a254 37bd
000000a0: 383b 99bd cecb 3dbd b394 d5bd 8a44 45be
000000b0: 575c 05be 90d0 59bd 9afc 77bd 15ca 3bbd
000000c0: f9d3 b0bd 900c 02be 8692 cdbd e347 cdbd
000000d0: 0e8a 21be 02ac e9bd ac7c f93e 227a 6b3e
000000e0: 85c7 d2be aa53 233f 841d 4fbd 8125 2abf
000000f0: c85a c43e 098f 82be 8e6c 02bf 1ead 733d
00000100: 6006 c23d b79e b5bd e9c5 173e a2db 683b
00000110: c233 99bd f6e8 753d ffc7 5bbd 2c6e 12bd
00000120: 2877 ebbe 58cb 17be a343 ad3e 55e0 ecbe
00000130: 2685 c6bc 31e9 f73e 385b 87be d531 033e
00000140: 05a5 e13e 9155 22be cc74 24be ac48 24be
00000150: 71d2 15be 76b5 15be f6ab 17be 46ec 07be
00000160: 6948 e8bd aed5 f8bd 8f3e a53c c5e0 e83c
00000170: b3c5 ae3c 474a 413d d736 693d 152b 143d
00000180: b2d9 863d 7636 df3d 5e55 8f3d 2682 5f3d
00000190: 1b4a 3a3d 7579 383d cba3 a03d d9ea a43d
000001a0: dff1 7e3d 8ca3 db3d 703e 0f3e 33c1 d33d
000001b0: b788 d7bd 7b4a eabd 60b7 b6bd 9ed4 32be
000001c0: 16cc 46be 071f 23be 9922 26be 27fe 2ebe
000001d0: 1cbc 18be e9d2 353e e2c7 313e c2e8 003e
000001e0: 30bf 1f3e e8c7 1b3e 5956 bd3d 0ddc 2a3e
000001f0: e181 313e 1461 da3d 2cf2 65bd be5a 33bd
00000200: ff2f 96bd 9924 97bc 7961 f7ba 4b4f 1dbd
00000210: b3ad 083c d2d4 c43c e414 70bc 985e a63d
00000220: 477c c2bd 6bda 2abe 0342 5ebe ee3a f4bd
00000230: 3dd9 083e 0f87 02bd 568a 833c a34a 16bd
00000240: 390c 383e 7519 5c3d dae1 8abd 0df7 1fbd
00000250: 2e76 683d 0383 5c3e 3961 993d 607e da3d
00000260: a071 91ba de98 a93d 954c c8bb 8217 b5bd
00000270: 3d27 cebd c313 31bd c3c0 e13d 779e 973c
00000280: 314b cdba 9100 84bd 8152 ab3c a791 ac3c
00000290: 7067 a13c 5cff 543c 8d0d 6e3c 346a 603c
000002a0: fda5 773c 7aba 843c f442 8d3c f345 6b3b
000002b0: bd29 0b3c 3e50 d63b 888d cd35 1a5a c33b
000002c0: d71c 8d3b 7b1f aa3b ec76 2c3c 1431 333c
000002d0: 1d2f 16bc 6c70 7b3a 409a eb39 b1bd 1dbc
000002e0: adc6 dd3a 637f ef3a a54d 6cbb 7023 e83b
000002f0: b4e9 093c 3f91 67bd b141 cb3c 21de 893d
00000300: d3d3 a0bd c3e5 d4bc 13bf d33b b36d 1bbd
00000310: de6f a83c b7e1 1d3d a3b5 f23c 7c02 9b3c
00000320: 6784 c9bc 66d2 313d 7a5e a4bb 265e c2bd
00000330: 6e46 d73d 463f b93d 1ad6 e73a 1477 523c
00000340: b6d3 08bd 85fc cbbd c831 023d 4af0 54bd
00000350: e90c 30be 9119 a13d c14a 373d 9a20 73bd
00000360: 7d2a 0ebc d5b3 92bd 6f95 0fbe 1b76 21bd
00000370: bcda 0bbe ffab 39be 574f 64bd f85b edbd
00000380: add7 d6bd 1336 f93d a2cc 863d d3f0 0abc
00000390: ce78 873d b71c f5bc 4652 aebd ce42 293c
000003a0: 39a8 2abd aa46 23bd 70e5 db3d ea7b 923d
000003b0: 91fd 963c 6e69 813d 0db8 23bc e30d 72bd
000003c0: d9ae fa3c 8ca4 c6bc 99ff 11bd b080 4f3d
000003d0: 86f2 933c 762d a43c 860f c2bb 2ad4 86bd
000003e0: 7098 25bd b528 adbc 040f 99bd 5526 23bd
000003f0: d0cc 90bc 3cfe 5abd ee69 febc 170c 84bd

encoder.0.block.1.weight f4 [64]
0.84992087 0.411836 0.45114625 0.39934787 0.40682337 0.124692455 0.08961637 0.20279221
0.4053781 0.24904732 0.37247914 0.63355327 0.27377424 0.40578946 0.69968057 0.35913235
0.3338239 0.36595768 0.6524849 0.5783572 0.23967297 0.2923344 0.5135228 0.31021035
0.553343 0.30281794 0.23591746 -0.26718137 0.19447875 0.23097874 0.19405238 0.8264306
0.666892 0.72972745 0.29636726 0.23738886 0.19064608 0.31905478 0.43258396 0.0743355
0.5996045 0.6745371 0.6534418 0.2775732 0.23164748 0.25729752 0.3785216 0.3055376
0.46732068 0.4110664 0.3175138 0.23038399 0.48996323 0.44944248 0.111124724 0.23323287
0.4537176 0.30108213 0.17295435 0.391121 0.1751341 0.28317136 0.22633983 0.25713012
00000000: 6a94 593f 2bdc d23e a4fc e63e 5377 cc3e
00000010: 274b d03e c25e ff3d ca88 b73d c3a8 4f3e
00000020: b88d cf3e 4306 7f3e 96b5 be3e 8c30 223f
00000030: 232c 8c3e a3c3 cf3e 441e 333f 32e0 b73e
00000040: f7ea aa3e ce5e bb3e 4009 273f 380f 143f
00000050: d56c 753e dbac 953e 3b76 033f e4d3 9e3e
00000060: e3a7 0d3f f40a 9b3e 5994 713e ffcb 88be
00000070: 7025 473e b185 6c3e abb5 463e f590 533f
00000080: 6fb9 2a3f 6bcf 3a3f 73bd 973e 1116 733e
00000090: ba38 433e 265b a33e a57b dd3e 363d 983d
000000a0: ae7f 193f 77ae 2c3f f647 273f 131e 8e3e
000000b0: ff34 6d3e 80bc 833e 95cd c13e 6d6f 9c3e
000000c0: a844 ef3e 4c77 d23e 2b91 a23e c8e9 6b3e
000000d0: 76dc fa3e 531d e63e 5c95 e33d 99d4 6e3e
000000e0: ac4d e83e 7027 9a3e f21a 313e 0341 c83e
000000f0: 5a56 333e d6fb 903e a1c5 673e 8fa6 833e

encoder.0.block.1.bias f4 [64]
-0.74747133 -0.23142241 -0.01108165 -0.23559965 -0.36032054 0.06182433 -0.11118158 -0.19151884
-0.23788305 -0.073331736 0.14937198 0.033346422 0.0096254395 0.086658224 0.00084323884 0.15877119
0.10742364 0.17929268 -0.0027502924 -0.6918557 -0.23272426 0.094169565 -0.2684632 -0.096191525
0.21625198 0.19092771 -0.070956975 0.13514957 0.14442137 -0.21177898 0.0976185 -0.05543087
0.026725795 -0.7928344 -0.003906909 -0.27422184 0.12855215 -0.38332367 -0.26890555 -0.04109493
0.38074318 -0.7246229 -0.6295335 -0.20976458 0.03675878 0.12983026 0.3146239 0.26229012
-0.041450813 0.20887285 0.10971376 -0.3170567 0.3004548 -0.004512488 -0.10755098 -0.13705388
0.17491324 -0.112621345 0.06915303 0.16862625 -0.017842889 0.15619932 0.059397466 0.026684232
00000000: 485a 3fbf fff9 6cbe cf8f 35bc 0941 71be
00000010: ef7b b8be 823b 7d3d 2bb3 e3bd 841d 44be
00000020: 9d97 73be f32e 96bd f8f4 183e 4296 083d
00000030: 05b4 1d3c de79 b13d cd0c 5d3a ea94 223e
00000040: ed00 dc3d 8098 373e 403e 34bb 751d 31bf
00000050: 454f 6ebe f9db c03d 0274 89be 1000 c5bd
00000060: 2971 5d3e 8e82 433e e451 91bd a664 0a3e
00000070: 32e3 133e 97dc 58be 35ec c73d 7b0b 63bd
00000080: 0ef0 da3c 32f7 4abf 8705 80bb ce66 8cbe
00000090: 2da3 033e 0043 c4be fdad 89be 2853 28bd
000000a0: c5f0 c23e e380 39bf 1c29 21bf 87cc 56be
000000b0: 6090 163d 39f2 043e 6216 a13e e44a 863e
000000c0: 54c8 29bd c4e2 553e 9cb1 e03d 4155 a2be
000000d0: 36d5 993e 7edd 93bb b043 dcbd da57 0cbe
000000e0: 751c 333e 05a6 e6bd 1ba0 8d3d 5cac 2c3e
000000f0: 402b 92bc b7f2 1f3e c24a 733d e498 da3c

encoder.0.block.1.running_mean f4 [64]
0.018173834 0.13944551 0.0021595468 0.010527782 0.023962412 -0.013173412 -0.037029043 0.023041736
0.11465975 0.06147396 0.05742645 0.04609547 -0.03384939 0.022405818 -0.03547907 -0.0051991213
0.038805414 0.0063701146 0.0053664325 0.015130373 0.040574457 0.023792414 0.016152272 0.12906545
0.020600686 0.009745685 -0.01913296 -0.030706298 0.028968845 -0.00720874 -0.01929312 -0.037504986
0.026430639 0.027240684 0.0012136014 -0.110485785 0.17618795 -0.11816178 0.11261636 0.012876443
-0.022825243 0.015959922 0.005880893 0.099425636 0.043421317 -0.0413738 -0.022138542 0.02845145
0.007264809 -0.029061886 -0.010258034 0.0042604003 0.030013146 -0.010425572 0.03862602 -0.10995832
0.04009846 -0.009830934 -0.15914337 -0.044821516 0.05742463 -0.012758069 -0.024118362 -0.008432268
00000000: 4be1 943c ceca 0e3e 2f87 0d3b b87c 2c3c
00000010: d24c c43c 4bd5 57bc c4ab 17bd 06c2 bc3c
00000020: bbd2 ea3d 1ecc 7b3d ff37 6b3d 9bce 3c3d
00000030: a8a5 0abd 688c b73c 8052 11bd 645d aabb
00000040: 6df2 1e3d 65bc d03b e6d8 af3b 62e5 773c
00000050: 6731 263d 4fe8 c23c c551 843c bc29 043e
00000060: c5c2 a83c 5eac 1f3c babc 9cbc c68b fbbc
00000070: 1250 ed3c 4b37 ecbb 9b0c 9ebc d49e 19bd
00000080: 1185 d83c db27 df3c b511 9f3a 5f46 e2bd
00000090: 9d6a 343e cefe f1bd 68a3 e63d b7f7 523c
000000a0: 01fc babc 62be 823c 82b4 c03b ab9f cb3d
000000b0: 8dda 313d 9377 29bd e35b b5bc 0413 e93c
000000c0: a30d ee3b 3113 eebc 5011 28bc d49a 8b3b
000000d0: 21de f53c 05d0 2abc 5136 1e3d d431 e1bd
000000e0: 483e 243d ed11 21bc 7bf6 22be c496 37bd
000000f0: 1736 6b3d 3807 51bc df93 c5bc 7f27 0abc

encoder.0.block.1.running_var f4 [64]
0.6480953 0.74863374 0.3019408 0.47931182 0.30197653 0.060896695 0.039938886 0.04824655
0.5608682 0.17664045 0.52015734 1.4116288 0.81631696 0.4547983 2.1998384 0.31342638
0.64844245 0.54612225 2.9680877 0.3324597 0.13447042 0.7193633 0.33794597 0.4744032
2.3376927 0.5926822 0.31994757 0.1035314 0.27650338 0.068706 0.16572565 2.4586477
3.3958654 0.64743763 0.83009106 0.3266418 0.8214969 0.45069137 0.52889425 0.014260557
3.046242 0.55160135 0.44649255 0.3667592 0.3325384 0.49545458 0.4978341 0.6114422
0.15507434 0.45631814 0.24254331 0.1338642 1.2561128 0.2232695 0.042674277 0.39541516
0.46794054 0.04040393 0.70954126 0.26367128 0.15217349 0.7456543 0.25717267 0.70346487
00000000: 93e9 253f 76a6 3f3f fc97 9a3e 5c68 f53e
00000010: ab9c 9a3e d06e 793d f596 233d 2d9e 453d
00000020: 0f95 0f3f 3ce1 343e 0829 053f 41b0 b43f
00000030: 26fa 503f 53db e83e 27ca 0c40 6c79 a03e
00000040: 5300 263f abce 0b3f 26f5 3d40 2838 aa3e
00000050: 9db2 093e 3128 383f 4107 ad3e fae4 f23e
00000060: c29c 1540 05ba 173f 2bd0 a33e 4508 d43d
00000070: da91 8d3e bbb5 8c3d fcb3 293e 7c5a 1d40
00000080: dc55 5940 79be 253f d980 543f 983d a73e
00000090: 9f4d 523f 05c1 e63e 9d65 073f 1ca5 693c
000000a0: a1f5 4240 bf35 0d3f ac9a e43e ddc7 bb3e
000000b0: 7942 aa3e 39ac fd3e 1ce4 fe3e 7a87 1c3f
000000c0: cfcb 1e3e 88a2 e93e 465d 783e b213 093e
000000d0: 4ec8 a03f c3a0 643e 39cb 2e3d db73 ca3e
000000e0: e795 ef3e 977e 253d 7fa4 353f ecff 863e
000000f0: 5ed3 1b3e 33e3 3e3f 23ac 833e 4616 343f

encoder.1.block.0.weight f4 [64, 64, 3, 3]
-0.085298516 -0.1077294 0.009281006 -0.047512356 -0.09838532 -0.002008674 0.012644109 -0.045767225
-0.04451797 0.0075399037 0.013652939 0.010014527 -0.011396967 -0.009309256 -0.013299778 -0.0064618667
-0.016127411 -0.026489802 0.09529122 -0.10092074 0.014142867 0.1054289 -0.010466254 0.090050116
0.07153008 -0.088422745 0.03159565 -0.011819435 -0.034452703 -0.047907457 -0.004297121 -0.02624692
-0.046983875 -0.006671742 -0.035463106 -0.054860298 -0.020371107 -0.030296132 -0.03180776 -0.013847406
-0.027777193 -0.03173202 -0.0178656 -0.029462654 -0.040750805 -0.011934411 -0.007298892 -0.0069111916
-0.014345384 -0.014815949 -0.03390832 0.0061871056 0.0044511207 -0.008887635 0.0024795856 0.0018810636
0.0023988958 -0.0016443632 -0.0013349742 -0.0012500848 -0.0009639732 -0.0014331633 -0.0024968407 -0.0067084567
0.00085738633 -0.012436069 -0.017353062 -0.0054755975 -0.016738428 -0.03588335 -0.012596436 -0.027980916
0.020511061 -0.007234101 0.000627283 0.023672465 -0.007698492 0.0021400144 0.037014175 -0.002696009
0.010923662 0.006203264 0.009396119 0.0063012056 0.011928089 0.01137347 0.0170753 0.029869262
0.021264208 0.022618843 -0.09053886 0.023012053 -0.07558446 -0.13907479 -0.11134992 -0.12637483
-0.101634406 -0.038824175 -0.085537754 -0.092993855 -0.04173005 0.025764791 -0.120332345 -0.101670876
0.03847985 0.0141546745 0.07744243 0.07739788 0.026365004 -0.018670946 -0.026896365 0.03287254
-0.008471371 -0.009020473 0.017342944 -0.026464777 -0.022327635 -0.08190833 0.078215264 -0.030299664
0.06540929 0.1468104 0.025508488 -0.037070032 0.019676777 -0.113951065 -0.005448217 0.023300087
0.070744805 -0.14966856 -0.1015033 0.012006452 -0.01262907 0.002493707 0.026096191 -0.04735331
-0.0041851318 -0.07164445 -0.051117893 -0.068588115 -0.08300176 0.0016597629 0.03382493 -0.018904535
-0.1013495 0.02364603 -0.038022146 -0.13661003 -0.06734524 -0.062195633 -0.017883781 -0.034091055
0.011171565 0.002559141 -0.028785935 0.01508682 -0.01698496 -0.022918617 0.028914325 -0.0067904633
-0.013320858 0.037094004 -0.032198098 0.16705342 -0.027501713 0.016869472 0.14727119 -0.062239166
-0.04206857 0.07922316 -0.14401309 -0.0050316975 -0.08524281 0.07057268 -0.035999168 -0.14712721
0.00461404 0.012265362 -0.10740212 -0.012913449 -0.00040656968 -0.0058176033 0.0068647116 -0.0073830886
-0.022912258 -0.0073022046 -0.0034736814 -0.0151190115 -0.012303205 0.034718234 0.026131827 0.01456619
0.0040356577 -0.014742563 -0.032704297 -0.0038371454 -0.018429298 -0.04542648 -0.0016547741 -0.007418908
-0.0055972706 -0.019426374 -0.024666479 -0.019982096 -0.007500745 -0.012376678 0.00048741413 -0.0004804566
0.0041530533 0.006865835 -0.0019897535 0.0013708199 0.0020419995 0.002242624 -0.006166202 -0.0055242577
-0.10143939 -0.09377192 0.046370268 0.027507436 0.055262323 0.18877032 0.0020102162 -0.036991123
0.051737126 0.0591139 -0.054771475 0.05089801 0.05674095 -0.0053495704 0.10759172 0.045310594
-0.067879416 0.09749288 -0.0040173642 -0.021267919 -0.0313378 -0.014090292 -0.031599764 -0.047785126
0.0027055552 -0.024146112 -0.04158229 -0.0011458282 -0.010292345 0.013483863 -0.041789938 -0.01636228
0.0015323665 0.0038751923 -0.005861606 0.01973552 -0.0063667283 -0.0010277823 -0.0045929374 -0.014112999
00000000: fdb0 aebd 3ba1 dcbd 5c0f 183c 519c 42bd
00000010: 3e7e c9bd f5a3 03bb 3d29 4f3c 6a76 3bbd
00000020: 7a58 36bd 4c11 f73b 94b0 5f3c f813 243c
00000030: 58ba 3abc da85 18bc 50e7 59bc 11be d3bb
00000040: a21d 84bc 2401 d9bc 0b28 c33d 88af cebd
00000050: 7cb7 673c 1beb d73d a77a 2bbc 326c b83d
00000060: 5d7e 923d fc16 b5bd 716a 013d 4ea6 41bc
00000070: 471e 0dbd 9c3a 44bd ddce 8cbb c803 d7bc
00000080: 2a72 40bd a19e dabb c341 11bd 31b5 60bd
00000090: 4fe1 a6bc 982f f8bc db48 02bd 3be0 62bc
000000a0: ff8c e3bc 6ff9 01bd e15a 92bc aa5b f1bc
000000b0: 51ea 26bd 8c88 43bc 8b2b efbb 4777 e2bb
000000c0: e708 6bbc 98be 72bc 73e3 0abd 34bd ca3b
000000d0: b5da 913b 719d 11bc 8b80 223b 058e f63a
000000e0: cb36 1d3b ac87 d7ba 4dfa aeba e3d9 a3ba
000000f0: 25b3 7cba fbd8 bbba 09a2 23bb 9dd2 dbbb
00000100: 39c2 603a a7c0 4bbc 0228 8ebc a46c b3bb
00000110: 071f 89bc 6bfa 12bd 4861 4ebc 3c38 e5bc
00000120: d006 a83c 0a0c edbb 4070 243a c2ec c13c
00000130: a243 fcbb 7c3f 0c3b 2d9c 173d 86af 30bb
00000140: 29f9 323c c044 cb3b 2ef2 193c 587a ce3b
00000150: 086e 433c ca57 3a3c 80e1 8b3c 62b0 f43c
00000160: 4732 ae3c 274b b93c 706c b9bd c683 bc3c
00000170: 06cc 9abd 9f69 0ebe 6d0b e4bd 6768 01be
00000180: b325 d0bd 1906 1fbd 6b2e afbd 9073 bebd
00000190: 21ed 2abd af10 d33c ce70 f6bd d238 d0bd
000001a0: 0c9d 1d3d 02e9 673c 239a 9e3d c882 9e3d
000001b0: 6cfb d73c d0f3 98bc c455 dcbc 5ba5 063d
000001c0: 81cb 0abc 9bca 13bc ca12 8e3c a9cc d8bc
000001d0: 72e8 b6bc 8ebf a7bd 532f a03d 0037 f8bc
000001e0: 4ef5 853d 7755 163e 2df7 d03c bfd6 17bd
000001f0: 3131 a13c 2d5f e9bd f586 b2bb d3df be3c
00000200: a7e2 903d b742 19be f6e0 cfbd b6b6 443c
00000210: 29ea 4ebc 766d 233b aec7 d53c 8bf5 41bd
00000220: 6e23 89bb 53ba 92bd ff60 51bd ed77 8cbd
00000230: d4fc a9bd 678c d93a 038c 0a3d afdd 9abc
00000240: 5490 cfbd 52b5 c13c 1cbd 1bbd 80e3 0bbe
00000250: 4dec 89bd d9c0 7ebd 0281 92bc 10a3 0bbd
00000260: f108 373c 43b7 273b 7bd0 ebbc b62e 773c
00000270: 0b24 8bbc d3bf bbbc bcdd ec3c 8982 debb
00000280: ba3f 5abc e2ef 173d 27e2 03bd 0d10 2b3e
00000290: 464b e1bc d931 8a3c 42ce 163e 7fee 7ebd
000002a0: 1850 2cbd c13f a23d 2b78 13be f0e0 a4bb
000002b0: c893 aebd 6988 903d dd73 13bd 84a8 16be
000002c0: 5f31 973b a8f4 483c a5f5 dbbd ee92 53bc
000002d0: dc28 d5b9 98a1 bebb 60f1 e03b d6ed f1bb
000002e0: 7db2 bbbc 5547 efbb b4a6 63bb bbb5 77bc
000002f0: 6293 49bc b534 0e3d 6a12 d63c 07a7 6e3c
00000300: 8d3d 843b ca8a 71bc f1f4 05bd 9e78 7bbb
00000310: 0af9 96bc 1e11 3abd 01e5 d8ba 501a f3bb
00000320: 4f69 b7bb 0f24 9fbc 5b11 cabc 7eb1 a3bc
00000330: cfc8 f5bb 8dc7 4abc 9e8b ff39 cbe5 fbb9
00000340: 5616 883b ccfa e03b 8666 02bb 15ad b33a
00000350: 11d3 053b fdf8 123b da0d cabb d504 b5bb
00000360: 74bf cfbd 7e0b c0bd c0ee 3d3d 4657 e13c
00000370: bf5a 623d 024d 413e d5bd 033b 0184 17bd
00000380: 4fea 533d 6b21 723d 0e58 60bd 6f7a 503d
00000390: 3369 683d 734b afbb 0c59 dc3d 9a97 393d
000003a0: 5d04 8bbd 59aa c73d 18a4 83bb 0f3a aebc
000003b0: 115c 00bd f8da 66bc c16e 01bd 56ba 43bd
000003c0: af4f 313b 11ce c5bc 3152 2abd 9d2f 96ba
000003d0: 39a1 28bc 6ceb 5c3c ed2b 2bbd 300a 86bc
000003e0: b0d9 c83a f0f6 7d3b b712 c0bb 63ac a13c
000003f0: fd9f d0bb a7b6 86ba 5a80 96bb 353a 67bc

encoder.1.block.1.weight f4 [64]
0.43743196 0.38811687 0.51932734 0.60326463 0.25247613 0.5341609 0.5832933 0.6318574
0.4965574 0.71002537 0.4911753 0.6198467 0.57251114 0.42833993 0.4353139 0.70549035
0.7108784 0.52295417 0.38616621 0.49282825 0.52505535 0.5363531 0.64671046 0.54684615
0.47634488 0.5054309 0.61480886 0.5829571 0.7971509 0.38576323 0.70455825 0.48616734
0.5442734 0.38267106 0.5812299 0.28541827 0.39389247 0.45969298 0.5100842 0.6416815
0.4483577 0.3893118 0.5529769 0.49367294 0.74071974 0.4785148 0.76767355 0.36652315
0.53834724 0.48074287 0.61123973 0.5624424 0.43360332 0.481365 0.5135544 0.5508819
0.41204116 0.4395705 0.41896468 0.6603678 0.3956571 0.48650354 0.7040329 0.66392976
00000000: 15f7 df3e 41b7 c63e a3f2 043f 8d6f 1a3f
00000010: 8d44 813e c5be 083f b652 153f 68c1 213f
00000020: c63c fe3e 39c4 353f 547b fb3e 46ae 1e3f
00000030: 1790 123f 5f4f db3e 77e1 de3e 049b 343f
00000040: 20fc 353f 53e0 053f 94b7 c53e fc53 fc3e
00000050: 076a 063f 704e 093f d18e 253f 1cfe 0b3f
00000060: 7ae3 f33e eb63 013f 1d64 1d3f ad3c 153f
00000070: 1512 4c3f c282 c53e ee5d 343f edea f83e
00000080: 8055 0b3f 76ed c33e 7ccb 143f 5822 923e
00000090: 46ac c93e e15c eb3e e194 023f 3d45 243f
000000a0: 248f e53e e053 c73e e58f 0d3f b3c2 fc3e
000000b0: cf9f 3d3f e4ff f43e 4186 443f eca8 bb3e
000000c0: 20d1 093f ee23 f63e 357a 1c3f 3afc 0f3f
000000d0: 4101 de3e 7975 f63e 4d78 033f 9906 0d3f
000000e0: 0ff7 d23e 620f e13e 8a82 d63e dd0d 293f
000000f0: 9193 ca3e fe16 f93e 803b 343f 4df7 293f

encoder.1.block.1.bias f4 [64]
-0.12493956 -0.16485277 -0.06005378 -0.23510197 -0.029181233 -0.39355466 -0.34544224 -0.32581976
-0.32764482 -0.5373808 -0.3192049 -0.2610691 -0.3257702 -0.2868205 -0.26110438 -0.38526514
-0.45084432 -0.3417554 -0.20170265 -0.22257619 -0.30385625 -0.46527094 -0.38951096 -0.263635
-0.33219308 -0.3039951 -0.36853158 -0.3685241 -0.39817035 -0.31716418 -0.45387197 -0.35644367
-0.29753187 -0.21612284 -0.49807298 0.0377334 -0.21994847 -0.20524742 -0.21080817 -0.30878943
-0.34581938 -0.1692636 -0.32632896 -0.15207462 -0.46883023 -0.22367038 -0.35235515 -0.15550998
-0.42257032 -0.25115457 -0.11086117 -0.41673338 -0.13163394 -0.2617014 -0.3032831 -0.30041173
-0.21938767 -0.24203394 -0.18784617 -0.40277147 -0.5228023 -0.34635597 -0.3381901 -0.20483567
00000000: 50e0 ffbd 2acf 28be f4fa 75bd 92be 70be
00000010: 7b0d efbc ff7f c9be cedd b0be d9d1 a6be
00000020: 10c1 a7be ca91 09bf d36e a3be d9aa 85be
00000030: 5acb a6be 23da 92be 79af 85be 7941 c5be
00000040: 11d5 e6be 90fa aebe 248b 4ebe 03eb 63be
00000050: 0c93 9bbe fe37 eebe fb6d c7be 2bfb 86be
00000060: 3615 aabe 3fa5 9bbe 2cb0 bcbe 31af bcbe
00000070: fcdc cbbe 5863 a2be e861 e8be c97f b6be
00000080: 1956 98be 4e4f 5dbe 6c03 ffbe 568e 1a3d
00000090: 2c3a 61be 612c 52be 19de 57be a619 9ebe
000000a0: 3d0f b1be 7053 2dbe 9714 a7be 73b9 1bbe
000000b0: 840a f0be d909 65be e567 b4be 023e 1fbe
000000c0: 235b d8be 5597 80be 2e0b e3bd 145e d5be
000000d0: 0ccb 06be bafd 85be ec47 9bbe 91cf 99be
000000e0: 29a7 60be bfd7 77be bf5a 40be 1038 cebe
000000f0: 5fd6 05bf 9255 b1be 4127 adbe 71c0 51be

encoder.1.block.1.running_mean f4 [64]
-0.8422477 -0.471452 -0.21607205 -0.43286467 -1.571783 -0.85979795 -0.8664886 -2.5520968
-0.07572243 -1.7639376 -0.9699927 -1.7359387 -0.9293167 -0.16911802 -0.60381323 -0.5776418
-1.7788976 -0.80544287 -0.36684698 -0.9692869 -0.79587334 -0.85880214 -0.45277593 -1.0334135
-0.50371003 -0.6564188 -1.1656907 -0.60122365 -1.9515218 -0.47492632 -0.8593346 -0.37393802
-0.6858584 -0.028781945 -0.4199321 -0.3672772 -0.8242051 -0.99439836 -1.0048298 -1.080017
-0.519048 0.35285234 -0.73515815 -0.623935 -2.0882835 -1.85073 -2.3165817 -1.2668939
-0.5280268 -0.5003226 -1.325369 -1.903556 -0.9082622 -1.386958 -0.87518716 -0.87380534
-0.34304646 -0.7822038 -0.029111126 -1.0760144 0.9224407 -0.884792 -1.0603222 -0.84844106
00000000: 8c9d 57bf 2862 f1be fe41 5dbe 70a0 ddbe
00000010: 2f30 c9bf b81b 5cbf 32d2 5dbf 8e55 23c0
00000020: 5d14 9bbd b5c8 e1bf 7151 78bf 3d33 debf
00000030: b3e7 6dbf 462d 2dbe 8193 1abf 55e0 13bf
00000040: ebb2 e3bf 8131 4ebf 5ed3 bbbe 3023 78bf
00000050: 5bbe 4bbf 75da 5bbf 3fd2 e7be e546 84bf
00000060: 24f3 00bf 100b 28bf 5a35 95bf cbe9 19bf
00000070: 77cb f9bf 8b29 f3be 5afd 5bbf ce74 bfbe
00000080: 6b94 2fbf 1dc8 ebbc 5701 d7be c20b bcbe
00000090: 1bff 52bf e490 7ebf 439e 80bf ff3d 8abf
000000a0: 54e0 04bf 10a9 b43e 5333 3cbf 34ba 1fbf
000000b0: 70a6 05c0 b8e4 ecbf e042 14c0 9429 a2bf
000000c0: c42c 07bf 2415 00bf b1a5 a9bf b9a7 f3bf
000000d0: df83 68bf d787 b1bf 440c 60bf b5b1 5fbf
000000e0: c9a3 afbe 823e 48bf 757a eebc d7ba 89bf
000000f0: 1325 6c3f ba81 62bf a3b8 87bf 6f33 59bf

encoder.1.block.1.running_var f4 [64]
1.5421518 0.76427704 1.5405586 2.125889 1.0548388 0.9550119 1.2305192 2.749533
1.0619364 1.5770667 0.8419544 2.1522915 0.83521837 0.90620184 0.760599 1.7346181
1.9206942 1.5537775 0.4206377 1.1457801 0.95668125 0.52981466 0.96183807 1.3783407
0.86793816 0.87177825 1.4473164 0.917891 2.545977 0.53974324 1.570086 0.6593826
1.1133806 0.45678884 1.1506414 0.75691885 0.79965025 1.2316095 1.7097511 1.4374682
0.61822146 1.129579 1.0067575 1.1314291 1.8848592 1.6227077 3.8280616 1.1960785
0.767153 0.5016657 2.4531155 1.1583936 0.97232497 1.5734962 1.0373193 0.8895863
0.495616 0.77800316 1.2205359 1.0052123 0.5467422 0.61081326 0.9344038 2.784802
00000000: 3b65 c53f a9a7 433f 0631 c53f 910e 0840
00000010: f504 873f a97b 743f a781 9d3f 59f8 2f40
00000020: 88ed 873f 52dd c93f 538a 573f 25bf 0940
00000030: dfd0 553f d8fc 673f 9eb6 423f f707 de3f
00000040: 4fd9 f53f 2ee2 c63f d35d d73e eca8 923f
00000050: 10e9 743f efa1 073f 053b 763f 786d b03f
00000060: 3231 5e3f dc2c 5f3f aa41 b93f e8fa 6a3f
00000070: 4af1 2240 9d2c 0a3f 94f8 c83f 4ccd 283f
00000080: 4183 8e3f 3ae0 e93e 3848 933f 6fc5 413f
00000090: e1b5 4c3f 61a5 9d3f 20d9 da3f f5fe b73f
000000a0: c343 1e3f 0b96 903f 6edd 803f abd2 903f
000000b0: 1143 f13f e3b4 cf3f f6fe 7440 1a19 993f
000000c0: 2464 443f 2a6d 003f d8ff 1c40 3e46 943f
000000d0: 4aea 783f 5368 c93f e1c6 843f eebb 633f
000000e0: 61c1 fd3e 372b 473f 853a 9c3f ccaa 803f
000000f0: 4cf7 0b3f 425e 1c3f 1635 6f3f 323a 3240

encoder.2.block.0.weight f4 [64, 64, 3, 3]
0.029863263 0.032801144 0.017459176 0.03063742 0.023246627 0.0015330635 0.023571901 0.10501055
-0.004792342 -0.00032490183 0.01743139 0.025113268 0.08035303 0.10552373 0.09833043 0.006491192
0.05563525 0.04513734 -0.019277545 -0.045382287 -0.042454176 -0.02254646 -0.023223156 -0.063848376
-0.0183639 0.0023652636 -0.012941578 0.110452995 0.10381189 0.05539106 0.02660396 0.030886449
0.048840676 0.030533513 0.008169168 0.035820596 0.007867542 0.022898108 0.0364276 -0.03328206
-0.039119046 -0.033703648 -0.06757228 -0.08001997 -0.07422346 -0.010949557 -0.022832276 -0.021208307
-0.017554207 -0.008520605 -0.0017388563 0.05470977 0.06698568 -0.013754522 -0.021291928 -0.02729306
0.0044595576 -0.083843224 -0.0704009 -0.052543245 -0.11236238 -0.049799155 -0.050502166 0.027818594
-0.0025069376 -0.004371032 0.026366523 -0.028148206 -0.041920144 0.11267334 0.04298717 0.05471614
-0.06821054 -0.043802727 -0.047951534 -0.04404468 -0.030760022 0.012776439 0.018859766 0.07130774
0.08799003 0.010312299 0.006465575 0.033048365 -0.0057205996 0.006266128 -0.006659983 -0.06555323
-0.055519957 -0.02970193 -0.03558073 -0.045016084 -0.045908835 -0.05299613 -0.035609525 -0.014008217
-0.028456148 -0.06970174 -0.030578809 -0.01580205 -0.022814672 -0.029307444 0.023756413 0.03561791
-0.016265567 0.0027102004 0.018094886 0.025398064 -0.001991246 0.04552998 -0.007994307 -0.002203927
0.001536161 -0.031987324 0.020379484 0.0069477577 -0.03772267 -0.06319811 -0.052589018 -0.07382864
-0.077998355 -0.08534766 -0.050616413 0.079374686 0.07046787 0.028502762 -0.06835616 -0.05762529
-0.026749015 -0.023722311 -0.015456152 -0.054588016 -0.025522986 0.006697637 -0.07944683 0.030332359
0.050641246 0.108905256 -0.00068218797 0.0049687466 0.057947513 -0.027513342 -0.041751646 0.0004507344
0.036449783 -0.01040819 -0.022487331 -0.022169633 -0.007927082 -0.026720623 0.009997168 -0.018084783
-0.053786766 -0.02838962 0.019880641 0.07228363 0.033366688 0.04778917 -0.02427019 0.10248125
0.07969848 -0.033822965 -0.030203966 -0.032087486 -0.059699904 -0.050620403 -0.049485065 -0.03145075
-0.032112163 -0.062144767 -0.0553408 -0.019731482 0.0037560395 0.01091166 -0.043705422 0.009828882
0.046379056 -0.09995868 -0.022011846 0.055061325 0.027822051 -0.05386321 -0.016103363 0.05181111
0.04813108 0.02428473 0.055964977 -0.0037726015 -0.03629772 -0.033844937 -0.022553027 -0.050930634
-0.007952956 -0.030852 -0.040977348 0.027557798 0.0005720982 0.008138608 0.02833435 0.022627868
0.016766623 0.010148086 0.027254956 0.04184564 -0.016152162 0.1179254 0.00696705 0.006529955
-0.009089089 -0.010837341 -0.00666665 -0.013234166 0.03997876 0.0026120734 0.093826056 0.0723171
-0.007270684 -0.020415038 -0.025392065 -0.05112718 -0.045029346 0.03836613 -0.11303202 -0.0629435
-0.0025365055 0.036130156 0.029860903 0.032854013 0.009347878 0.03864154 0.07820171 0.0020695536
0.08200729 0.06271084 0.015982497 0.048720196 0.07699248 -0.013417105 -0.019379698 0.03466385
-0.051378578 -0.051981635 -0.013163176 0.008566759 -0.007341039 -0.01889353 -0.038306 0.061319176
0.030506881 -0.030794727 0.088485844 0.04762392 0.0617885 0.06404852 0.05126121 -0.0625146
00000000: cda3 f43c 7e5a 063d 8c06 8f3c 54fb fa3c
00000010: b66f be3c 13f1 c83a dc19 c13c c50f d73d
00000020: 1409 9dbb 9657 aab9 46cc 8e3c 57ba cd3c
00000030: 2190 a43d d31c d83d 7761 c93d 11b4 d43b
00000040: cae1 633d eee1 383d f1eb 9dbc c7e2 39bd
00000050: 6ee4 2dbd 5bb3 b8bc 7d3e bebc f0c2 82bd
00000060: e46f 96bc 8a02 1b3b ea08 54bc 2e35 e23d
00000070: 549b d43d bce1 623d 8cf0 d93c 9405 fd3c
00000080: 290d 483d 6b21 fa3c f9d7 053c 9eb8 123d
00000090: dde6 003c d094 bb3c 1b35 153d c552 08bd
000000a0: 4b3b 20bd d60c 0abd 5663 8abd 83e1 a3bd
000000b0: 7802 98bd c565 33bc c10a bbbc 0bbd adbc
000000c0: d7cd 8fbc 029a 0bbc 56ea e3ba 5a17 603d
000000d0: ca2f 893d a65a 61bc 696c aebc b295 dfbc
000000e0: 7b21 923b ffb5 abbd 592e 90bd 9637 57bd
000000f0: 3f1e e6bd 33fa 4bbd 5cdb 4ebd d2e3 e33c
00000100: 6f4b 24bb e03a 8fbb 9bfe d73c 1197 e6bc
00000110: 75b4 2bbd 48c1 e63d 5113 303d 081e 603d
00000120: f8b1 8bbd 7d6a 33bd d468 44bd 3268 34bd
00000130: 71fc fbbc 4554 513c cc7f 9a3c cb09 923d
00000140: 1e34 b43d ebf4 283c 2ddd d33b b95d 073d
00000150: de73 bbbb 1754 cd3b fd3b dabb c640 86bd
00000160: e568 63bd 7651 f3bc 19bd 11bd c962 38bd
00000170: e70a 3cbd 7812 59bd 4bdb 11bd b882 65bc
00000180: de1c e9bc c9bf 8ebd 6980 fabc 4d73 81bc
00000190: d6e5 babc 2a16 f0bc cf9c c23c 16e4 113d
000001a0: 5e3f 85bc 9e9d 313b ba3b 943c 9a0f d03c
000001b0: 907f 02bb a57d 3a3d 8efa 02bc c26f 10bb
000001c0: 0359 c93a 2405 03bd e0f2 a63c 04aa e33b
000001d0: 1683 1abd 036e 81bd 9567 57bd 7833 97bd
000001e0: 9abd 9fbd c1ca aebd 2853 4fbd 328f a23d
000001f0: 7551 903d a07e e93c 50fe 8bbd 7f08 6cbd
00000200: c020 dbbc 4b55 c2bc cd3b 7dbc af97 5fbd
00000210: 9515 d1bc da77 db3b 05b5 a2bd 917b f83c
00000220: 326d 4f3d b809 df3d dcd4 32ba ded0 a23b
00000230: 5f5a 6d3d a963 e1bc c603 2bbd 8c50 ec39
00000240: 5e4c 153d 1d87 2abc 5a37 b8bc 179d b5bc
00000250: 97e0 01bc 35e5 dabc 29cb 233c 8a26 94bc
00000260: 834f 5cbd 5991 e8bc badc a23c 7109 943d
00000270: 82ab 083d 94be 433d 47d2 c6bc b1e1 d13d
00000280: f538 a33d f389 0abd 4f6e f7bc 2b6e 03bd
00000290: e387 74bd 5757 4fbd dab0 4abd 80d2 00bd
000002a0: 0b88 03bd 838b 7ebd 09ad 62bd eba3 a1bc
000002b0: e327 763b d2c6 323c 7504 33bd 5209 213c
000002c0: f7f7 3d3d 23b7 ccbd 3052 b4bc fc87 613d
000002d0: 12eb e33c ab9f 5cbd 33eb 83bc e337 543d
000002e0: 1825 453d c5f0 c63c 883b 653d c03d 77bb
000002f0: ebac 14bd fda0 0abd 20c1 b8bc a49c 50bd
00000300: 1d4d 02bc 55bd fcbc ddd7 27bd e4c0 e13c
00000310: dcf8 153a cc57 053c 701d e83c 145e b93c
00000320: 285a 893c 2844 263c c945 df3c 5566 2b3d
00000330: 8a51 84bc df82 f13d da4b e43b 3cf9 d53b
00000340: 67ea 14bc 1a8f 31bc ea73 dabb 1ed4 58bc
00000350: c5c0 233d 522f 2b3b e027 c03d fd1a 943d
00000360: eb3e eebb 703d a7bc 0503 d0bc bc6a 51bd
00000370: b170 38bd ce25 1d3d 557d e7bd 86e8 80bd
00000380: 803b 26bb 37fd 133d da9e f43c ee91 063d
00000390: d827 193c 9746 1e3d 3828 a03d 59a1 073b
000003a0: 70f3 a73d 8a6e 803d baed 823c d48e 473d
000003b0: 3cae 9d3d 6bd3 5bbc 2cc2 9ebc aefb 0d3d
000003c0: 5872 52bd b2ea 54bd 5daa 57bc 975b 0c3c
000003d0: 198d f0bb 9bc6 9abc c1e6 1cbd d129 7b3d
000003e0: 91e9 f93c 3945 fcbc 1138 b53d 4d11 433d
000003f0: f015 7d3d df2b 833d 46f7 513d a807 80bd

encoder.2.block.1.weight f4 [64]
0.38674125 0.5510157 0.50635946 0.44974685 0.5411238 0.387581 0.3699442 0.67672545
0.35175088 0.5069466 0.5673024 0.33544675 0.76675224 0.4399877 0.43443513 0.57694536
0.3969682 0.48655912 0.4887281 0.5331049 0.54215366 0.42172858 0.54668134 0.51959753
0.42348036 0.50271827 0.60364604 0.47045317 0.36179313 0.49394873 0.49184385 0.47461337
0.4446479 0.639037 0.48151475 0.595633 0.583715 0.38708305 0.5455491 0.6612465
0.6146223 0.46643874 0.55602336 0.30931246 0.42325765 0.61435133 0.4569063 0.69215816
0.46751073 0.7359969 0.427933 0.48118547 0.51132965 0.52885866 0.5524145 0.5328381
0.58484095 0.55955297 0.66215754 0.52589357 0.73559994 0.36881852 0.48065582 0.5051602
00000000: f302 c63e 5d0f 0d3f c6a0 013f 3845 e63e
00000010: 1787 0a3f 0471 c63e 5469 bd3e e13d 2d3f
00000020: b118 b43e 41c7 013f bb3a 113f adbf ab3e
00000030: e049 443f 1146 e13e 486e de3e b1b2 133f
00000040: 6a3f cb3e 471e f93e 923a fa3e 9079 083f
00000050: 95ca 0a3f cfec d73e 4ff3 0b3f 5804 053f
00000060: 6bd2 d83e 25b2 003f 8c88 1a3f 3ddf f03e
00000070: f33c b93e d9e6 fc3e f5d2 fb3e 8600 f33e
00000080: e4a8 e33e ee97 233f 1a89 f63e 677b 183f
00000090: 596e 153f c02f c63e 1ba9 0b3f 7347 293f
000000a0: e357 1d3f 0fd1 ee3e 8c57 0e3f 345e 9e3e
000000b0: 3ab5 d83e 2146 1d3f 9fef e93e 4731 313f
000000c0: 915d ef3e 4b6a 3c3f 091a db3e f15d f63e
000000d0: 80e6 023f 4863 073f 096b 0d3f 1468 083f
000000e0: 23b8 153f dd3e 0f3f 2883 293f f6a0 063f
000000f0: 4750 3c3f c8d5 bc3e 8518 f63e 2e52 013f

encoder.2.block.1.bias f4 [64]
-0.42967492 -0.6083938 -0.57077706 -0.32825726 -0.58815837 -0.22182767 -0.4534638 -0.7831676
-0.4120679 -0.5392104 -0.65412813 -0.21426956 -1.118978 -0.40926504 -0.4779989 -0.69118375
-0.3747919 -0.77398777 -0.67248124 -0.50623935 -0.58623636 -0.49078834 -0.48271692 -0.63583004
-0.46333155 -0.5345021 -0.615023 -0.4519557 -0.26416466 -0.53947264 -0.45833924 -0.51525146
-0.39437574 -0.76718706 -0.6636152 -0.7617836 -0.62278533 -0.42013714 -0.4988181 -0.8139247
-0.7095361 -0.45181414 -0.6304611 -0.039354835 -0.4091703 -0.6510638 -0.44577706 -0.67728484
-0.59576 -0.7783337 -0.38467386 -0.5848006 -0.50768566 -0.53957784 -0.56527007 -0.58874124
-0.65277535 -0.78335077 -0.8843151 -0.5945431 -0.96192724 -0.26849145 -0.48513788 -0.5835292
00000000: 5afe dbbe b2bf 1bbf 721e 12bf 5611 a8be
00000010: 8c91 16bf cb26 63be 682c e8be ac7d 48bf
00000020: 90fa d2be b109 0abf f174 27bf 7b69 5bbe
00000030: ac3a 8fbf 308b d1be 46bc f4be 6bf1 30bf
00000040: b9e4 bfbe 1024 46bf bb27 2cbf e798 01bf
00000050: 9613 16bf 9c48 fbbe ac26 f7be c2c5 22bf
00000060: cb39 edbe 21d5 08bf 2672 1dbf bd66 e7be
00000070: 9740 87be e11a 0abf 71ab eabe 85e7 03bf
00000080: 9eeb c9be 5f66 44bf b0e2 29bf 4004 43bf
00000090: dc6e 1fbf 371c d7be 1665 ffbe 5e5d 50bf
000000a0: 28a4 35bf 2f54 e7be e665 21bf 8932 21bd
000000b0: c57e d1be 1eac 26bf e43c e4be 8a62 2dbf
000000c0: ba83 18bf e140 47bf f9f3 c4be 7eb5 15bf
000000d0: b0f7 01bf c621 0abf 8ab5 10bf bfb7 16bf
000000e0: 491c 27bf ad89 48bf 7962 62bf fa33 18bf
000000f0: dd40 76bf b677 89be fe63 f8be 2b62 15bf

encoder.2.block.1.running_mean f4 [64]
-0.38241175 -0.6426378 0.08578406 -1.0967202 -0.39319965 -1.035943 -0.14863363 -0.9943673
0.11169841 -0.9779103 -0.5848207 -0.70352423 -0.8208111 -0.6897708 -0.43935037 -0.4519234
-0.067569494 0.039117604 0.049972605 -0.8928126 -0.7633867 -0.61987543 -0.737812 -0.64511627
-0.60906446 -0.69228274 -1.4145457 -0.48376277 -0.60511 -0.9166842 -0.79577875 -0.6006206
-0.8503538 -0.8420072 -0.47252104 -0.6952101 -0.9659094 -0.28983095 -0.49722967 -0.64654094
-0.78617924 -0.7492536 -0.6693046 -0.8957515 -0.9916024 -0.53344506 -0.3794752 -0.791265
-0.34323806 -0.8907734 -0.7144737 -0.4626693 -0.72247976 -0.48386165 -1.2463953 -0.74066824
-0.84345895 -0.7501426 -0.70343596 -0.84179735 -1.1309346 -0.61223 -0.91133904 -0.76980406
00000000: 79cb c3be e983 24bf 8eaf af3d 5461 8cbf
00000010: 7751 c9be c899 84bf 6a33 18be db8e 7ebf
00000020: 23c2 e43d 5458 7abf cfb6 15bf 2a1a 34bf
00000030: ad20 52bf d294 30bf 88f2 e0be 8162 e7be
00000040: e061 8abd c839 203d 13b0 4c3d 5e8f 64bf
00000050: 506d 43bf 28b0 1ebf 3fe1 3cbf 5726 25bf
00000060: a6eb 1bbf 7139 31bf d50f b5bf c1af f7be
00000070: 7de8 1abf d1ab 6abf 28b8 4bbf 46c2 19bf
00000080: c9b0 59bf c98d 57bf 47ee f1be 4af9 31bf
00000090: d745 77bf b964 94be e394 febe b583 25bf
000000a0: 0b43 49bf 15cf 3fbf 8c57 2bbf f84f 65bf
000000b0: a8d9 7dbf db8f 08bf 934a c2be 5890 4abf
000000c0: e6bc afbe ba09 64bf c0e7 36bf fee2 ecbe
000000d0: 6ff4 38bf b7bc f7be e289 9fbf 6f9c 3dbf
000000e0: edec 57bf 5809 40bf 6114 34bf 0880 57bf
000000f0: 77c2 90bf 1bbb 1cbf 844d 69bf e111 45bf

encoder.2.block.1.running_var f4 [64]
0.20132071 0.24763867 0.33903623 0.35767943 0.28432176 0.3660864 0.13498272 0.4210916
0.1337334 0.37962148 0.29940537 0.4522178 0.3926188 0.2454003 0.2500093 0.3047475
0.2670345 0.21521102 0.21958521 0.33123824 0.31603763 0.20599037 0.28250042 0.30217573
0.24733785 0.26782697 0.41460088 0.30286214 0.19355047 0.37691644 0.3027257 0.24223717
0.24593277 0.364507 0.22664598 0.33468243 0.33124712 0.18248934 0.27722386 0.424981
0.45062193 0.29549772 0.34644344 0.62952536 0.29083514 0.28050238 0.17986928 0.39567766
0.20567453 0.58181524 0.25468433 0.25205985 0.34683964 0.22910705 0.4930507 0.2897778
0.2944902 0.27657586 0.30428487 0.38133886 0.5297056 0.18002574 0.22407214 0.33720496
00000000: 0427 4e3e fe94 7d3e 2896 ad3e c221 b73e
00000010: 9f92 913e ad6f bb3e e938 0a3e 5199 d73e
00000020: 69f1 083e bf5d c23e a94b 993e 1789 e73e
00000030: 5505 c93e 374a 7b3e 3801 803e dd07 9c3e
00000040: bfb8 883e 4760 5c3e f2da 603e 0f98 a93e
00000050: afcf a13e 24ef 523e e5a3 903e c7b6 9a3e
00000060: 2246 7d3e 9e20 893e 9146 d43e bf10 9b3e
00000070: 1832 463e 31fb c03e ddfe 9a3e 050d 783e
00000080: cdd5 7b3e a9a0 ba3e e215 683e 7f5b ab3e
00000090: 3999 a93e 7cde 3a3e 49f0 8d3e 1c97 d93e
000000a0: ebb7 e63e 7a4b 973e 0961 b13e 9328 213f
000000b0: 58e8 943e 029e 8f3e a72f 383e 4396 ca3e
000000c0: 589c 523e d8f1 143f fc65 823e fd0d 813e
000000d0: f794 b13e 0a9b 6a3e 2471 fc3e c15d 943e
000000e0: 6bc7 963e 5a9b 8d3e 3acb 9b3e d93e c33e
000000f0: c99a 073f ab58 383e 2b73 653e 21a6 ac3e

encoder.3.block.0.weight f4 [64, 64, 3, 3]
-0.016451495 -0.008086564 0.0049431357 -0.027480286 -0.007912676 -0.0050767926 -0.047230825 -0.03078767
-0.034243833 0.021121455 -0.0062439064 0.05690488 0.022973098 0.009073625 0.048240416 -0.019465052
-0.009243328 -0.017834121 -0.011759144 -0.040880173 -0.033433553 -0.016195424 -0.017957136 -0.032613385
-0.06596513 -0.051522512 -0.083172224 -0.009596711 -0.0135314865 -0.07030648 0.017343758 0.0036205214
-0.05525844 0.059445426 0.08516686 0.022332415 0.026874216 -0.020402554 0.007881028 0.04082806
-0.007706918 0.031080984 0.023711722 0.0047326647 0.011280893 -0.02998721 -0.038808357 0.040108956
-0.07223023 -0.09935681 -0.023986068 -0.00633558 -0.028317105 0.072492145 -0.011861815 -0.041657876
-0.07954945 -0.02017628 -0.04279265 -0.06930297 0.014525435 -0.041831568 -0.047533862 -0.027562644
-0.044910666 -0.04751186 -0.028673653 -0.0016278761 -0.02863707 -0.01985092 -0.003801425 -0.044911347
0.0069755814 0.009575743 0.03183916 -0.0140287895 -0.00801963 0.018735101 -0.055661947 -0.021693576
-0.018458998 0.017648388 0.021546856 0.032373413 0.04360797 0.016819082 0.02041271 0.03670966
0.006174211 0.036001448 -0.033256438 -0.01744234 -0.026339214 -0.030904422 -0.016665963 -0.0100307455
-0.040530797 -0.016252715 -0.022329714 -0.029034533 -0.0037158781 -0.039893832 -0.01999733 -0.02653669
-0.045391936 0.034344353 0.047750585 0.048854966 -0.0152842775 -0.02938176 -0.04274385 -0.02724437
0.002544664 -0.015635964 -0.005569497 -0.005765513 -0.0018861073 0.050146352 0.039535426 0.057702634
0.007013948 -0.033924054 0.008314344 0.032164603 -0.041901026 0.018416222 0.0007765136 0.030148117
0.0050961482 0.012430862 0.044525377 -0.0009665489 -0.022450112 -0.00028161105 -0.03405873 0.0018374758
0.0162199 -0.008180403 -0.010769684 -0.004977958 -0.0092656715 -0.042587534 -0.033805273 -0.031144734
0.002249388 0.0052006254 -0.0017618611 -0.024519004 -0.029003443 -0.009621394 -0.02251876 -0.033630334
-0.029391514 0.03006986 -0.015910873 -0.0014265823 0.020587 -0.019502299 -0.005959535 -0.014897125
-0.027144633 -0.028117603 0.028548958 0.029748112 0.03662079 0.026595848 0.009016032 0.039729767
0.033021096 0.014670331 0.009478451 -0.017337875 -0.04288283 -0.049674332 -0.0341237 -0.0053864205
-0.042403348 -0.010498523 -0.031309757 -0.027599648 -0.0055012954 0.033783976 0.023694452 0.0013714979
-0.0014799541 0.010528388 0.019331848 0.027742095 -0.0008926422 -0.03122198 -0.008023848 0.021304494
-0.033673394 -0.051380742 0.002672419 -0.03929204 -0.023683187 -0.0331394 -0.061781153 -0.039692134
-0.049550693 -0.040197916 -0.045393694 -0.043434434 -0.05571437 -0.034543265 -0.019981135 -0.05197538
-0.020127632 -0.025109604 -0.024588507 -0.016119592 -0.019907285 -0.039926633 -0.025167532 -0.028261451
-0.049333014 -0.028505389 0.021902623 -0.005496151 0.025183382 0.09595947 0.03196243 0.093288414
0.21406811 -0.072972864 -0.059136912 -0.09449039 -0.07171824 -0.056830436 -0.06913984 -0.07203006
-0.03862779 -0.07636118 -0.051430218 -0.008805526 -0.015432777 -0.02921271 0.0013726519 0.0008806767
-0.033334803 0.005602366 -0.004991487 0.011874863 -0.000626642 -0.0025787016 -0.029734854 -0.0130591355
-0.018526454 -0.03463349 -0.033985354 -0.041105445 -0.013353897 -0.030792955 -0.056137953 -0.013861299
00000000: 49c5 86bc 827d 04bc 07fa a13b 561e e1bc
00000010: 2ba4 01bc 395b a6bb 1c75 41bd 6c36 fcbc
00000020: 4343 0cbd e706 ad3c af99 ccbb 1715 693d
00000030: 1432 bc3c 8ba9 143c be97 453d 2c75 9fbc
00000040: 5471 17bc dd18 92bc 6da9 40bc f871 27bd
00000050: 9ff1 08bd 44ac 84bc d81a 93bc 9d95 05bd
00000060: ba18 87bd 4509 53bd 3356 aabd 863b 1dbc
00000070: 2bb3 5dbc d8fc 8fbd 7f14 8e3c 4546 6d3b
00000080: ad56 62bd 0c7d 733d f66b ae3d 78f2 b63c
00000090: 5127 dc3c 4223 a7bc 6d1f 013c 533b 273d
000000a0: 508a fcbb 8c9d fe3c 163f c23c 7814 9b3b
000000b0: 7fd3 383c bda7 f5bc 83f5 1ebd 4a49 243d
000000c0: 71ed 93bd 957b cbbd 6e7e c4bc b29a cfbb
000000d0: 46f9 e7bc c376 943d 0f58 42bc 73a1 2abd
000000e0: d2ea a2bd ba48 a5bc 5947 2fbd b7ee 8dbd
000000f0: 17fc 6d3c 9457 2bbd deb2 42bd 0ecb e1bc
00000100: 3ff4 37bd cc9b 42bd 02e5 eabc 755e d5ba
00000110: 4a98 eabc 669e a2bc 5421 79bb f6f4 37bd
00000120: 6b93 e43b 94e3 1c3c c769 023d 02d9 65bc
00000130: c464 03bc 5b7a 993c c8fd 63bd bab6 b1bc
00000140: 5337 97bc 5a93 903c 0883 b03c fc99 043d
00000150: 459e 323d 2cc8 893c 8e38 a73c de5c 163d
00000160: 0951 ca3b 4176 133d e737 08bd 3de3 8ebc
00000170: 56c5 d7bc 452b fdbc 0f87 88bc ff57 24bc
00000180: 9f03 26bd 6a24 85bc ceec b6bc d4d9 edbc
00000190: 1786 73bb b767 23bd 71d1 a3bc 7963 d9bc
000001a0: e5ec 39bd aaac 0c3d 1e96 433d 251c 483d
000001b0: e86a 7abc 04b2 f0bc 2d14 2fbd 962f dfbc
000001c0: 61c4 263b fe16 80bc 5480 b6bb a1ec bcbb
000001d0: 4237 f7ba 4366 4d3d e6ef 213d 9959 6c3d
000001e0: 43d5 e53b f3f3 0abd e338 083c 08bf 033d
000001f0: 69a0 2bbd 9edd 963c f28e 4b3a 2ff9 f63c
00000200: 97fd a63b d0aa 4b3c 3e60 363d 0060 7dba
00000210: 4ce9 b7bc 32a5 93b9 2b81 0bbd 75d7 f03a
00000220: 99df 843c 1907 06bc 5473 30bc 231e a3bb
00000230: 0bcf 17bc 4470 2ebd 6677 0abd 3e23 ffbc
00000240: 786a 133b 026a aa3b 40ee e6ba 14dc c8bc
00000250: a198 edbc 0da3 1dbc 4379 b8bc f6bf 09bd
00000260: 79c6 f0bc 1155 f63c 8557 82bc 29fc baba
00000270: 11a6 a83c 49c3 9fbc 3448 c3bb 1213 74bc
00000280: 6c5e debc e356 e6bc 81df e93c 50b2 f33c
00000290: aeff 153d 89df d93c fbb7 133c aebb 223d
000002a0: 2141 073d d45b 703c 814b 1b3c 2908 8ebc
000002b0: e8a5 2fbd 5077 4bbd 4bc5 0bbd 9280 b0bb
000002c0: 22af 2dbd ff01 2cbc a93e 00bd a818 e2bc
000002d0: 3644 b4bb 1161 0a3d de1a c23c d5c3 b33a
000002e0: 05fb c1ba 437f 2c3c d35d 9e3c 6443 e33c
000002f0: 3400 6aba 3dc5 ffbc 7576 03bc c386 ae3c
00000300: 1ded 09bd 9d74 52bd c023 2f3b b1f0 20bd
00000310: 3e03 c2bc 2ebd 07bd 3c0e 7dbd 3894 22bd
00000320: abf5 4abd 92a6 24bd bdee 39bd 4ee8 31bd
00000330: c034 64bd 3d7d 0dbd 7aaf a3bc 23e4 54bd
00000340: b4e2 a4bc a8b2 cdbc d66d c9bc 3c0d 84bc
00000350: 9a14 a3bc 1c8a 23bd 242c cebc 8f84 e7bc
00000360: 6a11 4abd 2284 e9bc 216d b33c 0e19 b4bb
00000370: 614d ce3c 6686 c43d 09eb 023d ff0d bf3d
00000380: ac34 5b3e cc72 95bd 8c39 72bd 2d84 c1bd
00000390: 03e1 92bd 08c7 68bd 3099 8dbd 7f84 93bd
000003a0: 2c38 1ebd 4063 9cbd 7ea8 52bd 0e45 10bc
000003b0: c2d9 7cbc 7e4f efbc 8eea b33a 36dd 663a
000003c0: 138a 08bd 0d94 b73b a18f a3bb c98e 423c
000003d0: 3c45 24ba 6fff 28bb 8296 f3bc fcf5 55bc
000003e0: cac4 97bc d9db 0dbd 3a34 0bbd 2f5e 28bd
000003f0: 4eca 5abc 8241 fcbc e9f0 65bd 801a 63bc

encoder.3.block.1.weight f4 [64]
1.324538 1.6818174 1.9229202 1.1873083 1.3500371 1.6604218 1.3235395 1.5697441
1.6287582 1.3759786 1.5775491 1.4609752 1.2502598 1.1856568 1.4351398 1.135639
1.5501739 1.7429161 1.6525999 1.3139093 1.1972182 1.0952528 1.828398 1.3456901
1.7432035 1.3172635 1.7604424 1.2129636 1.3575757 1.4848119 1.3262154 1.5823891
1.6618592 1.7881708 1.7417111 1.9013599 1.3898857 1.4707917 1.5639236 1.5816382
1.4156784 1.1194315 1.4744017 1.2145643 1.5284095 1.5255803 1.4286679 1.6680062
1.5084932 1.6524242 1.4191276 1.3601426 1.529818 1.5386883 1.5146861 1.6225178
1.8838202 1.5495478 1.547266 1.6183138 1.2387667 1.6851434 1.663013 1.4175508
00000000: 768a a93f cb45 d73f 4022 f63f b8f9 973f
00000010: 04ce ac3f b488 d43f be69 a93f 60ed c83f
00000020: 267b d03f 1120 b03f 21ed c93f 3c01 bb3f
00000030: 8308 a03f 9ac3 973f a9b2 b73f 9e5c 913f
00000040: 196c c63f e017 df3f 6588 d33f 2e2e a83f
00000050: 723e 993f 3e31 8c3f f208 ea3f 933f ac3f
00000060: 4b21 df3f 179c a83f 2d56 e13f 6442 9b3f
00000070: 0ac5 ad3f 510e be3f 6dc1 a93f ba8b ca3f
00000080: cdb7 d43f c8e2 e43f 64f0 de3f c35f f33f
00000090: c6e7 b13f e742 bc3f a62e c83f 1f73 ca3f
000000a0: f334 b53f 8849 8f3f 32b9 bc3f d876 9b3f
000000b0: eca2 c33f 3746 c33f 97de b63f 3a81 d53f
000000c0: 4e16 c13f a382 d33f f9a5 b53f 2719 ae3f
000000d0: 14d1 c33f bdf3 c43f 3ce1 c13f aaae cf3f
000000e0: 0521 f13f 9557 c63f d00c c63f e824 cf3f
000000f0: e88f 9e3f c7b2 d73f 9cdd d43f 4e72 b53f

encoder.3.block.1.bias f4 [64]
0.20442578 0.117548354 0.049245313 0.08363305 0.032885663 0.10253992 0.38168707 0.032245893
0.095771894 0.22598046 0.10580629 0.024695491 0.1257235 0.17095192 0.22920361 0.19356027
0.14459196 0.022990562 -0.05070084 0.26970908 0.04147992 0.11841681 0.19362721 0.14100663
0.22303914 0.12636603 0.19400194 0.20950194 0.206594 0.21974081 0.10580836 0.2037141
0.19052164 -0.07149725 0.15568823 -0.09156432 0.029510526 0.16361059 0.1751085 0.17318487
0.1551582 0.0596267 0.14635107 0.13877688 0.1618004 0.22129163 0.21144053 0.077779904
0.28379512 0.12652808 0.23326541 0.1851838 0.25912583 0.12205266 0.18698086 -0.026517477
0.15212819 0.12751025 0.085814975 0.10457863 0.22949643 0.18248588 0.08065726 0.2695419
00000000: fe54 513e 31bd f03d 74b5 493d ce47 ab3d
00000010: 1eb3 063d 7300 d23d 7d6c c33e 4514 043d
00000020: 0e24 c43d 6c67 673e f8b0 d83d 334e ca3c
00000030: a9bd 003e 050e 2f3e 5ab4 6a3e aa34 463e
00000040: ea0f 143e b456 bc3c afab 4fbd 4f17 8a3e
00000050: d9e6 293d 8384 f23d 3646 463e 0b64 103e
00000060: 5f64 643e 1966 013e 72a8 463e ad87 563e
00000070: 618d 533e bc03 613e 0eb2 d83d 6e9a 503e
00000080: 1b18 433e 266d 92bd bc6c 1f3e 1386 bbbd
00000090: 0fc0 f13c 8989 273e a54f 333e 6057 313e
000000a0: cbe1 1e3e 203b 743d 0edd 153e 871b 0e3e
000000b0: 01af 253e 469a 623e de83 583e 124b 9f3d
000000c0: 984d 913e 9490 013e 21dd 6e3e d2a0 3d3e
000000d0: 24ac 843e bff6 f93d e977 3f3e 2e3b d9bc
000000e0: 7ec7 1b3e 0c92 023e c3bf af3d 522d d63d
000000f0: 1d01 6b3e 94dd 3a3e a22f a53d 6501 8a3e

encoder.3.block.1.running_mean f4 [64]
-0.120630935 -0.081360064 -0.084137 -0.1106894 -0.06290309 -0.075055644 0.008140279 -0.051004816
-0.13638756 0.013458676 -0.069951095 -0.092247926 -0.05812086 -0.07244333 0.0041521904 -0.014026645
-0.09625738 -0.04442489 -0.114240214 0.0009272323 -0.090606295 -0.0724443 -0.046003412 -0.060809217
-0.16717437 -0.01649773 -0.12241804 -0.020103574 0.0058083944 -0.116868235 -0.024394548 0.019868668
-0.056367327 -0.09498814 -0.10533435 -0.10850636 -0.03103102 -0.04755036 -0.08830015 -0.06155272
0.0096296305 -0.033773035 -0.079443775 0.017955916 -0.07611934 0.0400198 0.00049383374 -0.0945058
-0.017936006 -0.08750569 0.0065745893 -0.017971221 0.026596362 -0.056794345 -0.124105155 -0.12199634
-0.0948813 -0.044915885 -0.11951482 -0.008680489 -0.014938065 -0.017797923 -0.01142205 -0.058641523
00000000: 5a0d f7bd 1ba0 a6bd 0550 acbd 20b1 e2bd
00000010: 56d3 80bd c6b6 99bd ce5e 053c 6dea 50bd
00000020: 2ea9 0bbe c781 5c3c 8542 8fbd 7bec bcbd
00000030: 2410 6ebd 2b5d 94bd 190f 883b 03d0 65bc
00000040: 9722 c5bd e0f6 35bd c6f6 e9bd 8211 733a
00000050: cb8f b9bd ad5d 94bd 136e 3cbd 1613 79bd
00000060: c22f 2bbe 3f26 87bc 4fb6 fabd 40b0 a4bc
00000070: 5854 be3b 9d58 efbd 13d7 c7bc 9ec3 a23c
00000080: 6de1 66bd 2489 c2bd 89b9 d7bd 9538 debd
00000090: c434 febc 2bc4 42bd b6d6 b4bd b41e 7cbd
000000a0: 99c5 1d3c 9855 0abd 6bb3 a2bd 4918 933c
000000b0: 75e4 9bbd cdeb 233d 9f74 013a 428c c1bd
000000c0: 88ee 92bc 2f36 b3bd a76f d73b 6238 93bc
000000d0: 9de0 d93c 30a1 68bd d82a febd 38d9 f9bd
000000e0: 2151 c2bd b8f9 37bd 30c4 f4bd 9c38 0ebc
000000f0: c9be 74bc f3cc 91bc 8d23 3bbc 1832 70bd

encoder.3.block.1.running_var f4 [64]
0.021564739 0.028550174 0.03940516 0.025158376 0.026085708 0.034014616 0.03299438 0.031419706
0.036155205 0.0311123 0.040381957 0.03263463 0.025017247 0.022192212 0.031514358 0.018012011
0.028359536 0.037615217 0.042481802 0.028736142 0.018995732 0.017318696 0.042647164 0.02451808
0.042017166 0.026141178 0.040891342 0.020053383 0.031504467 0.034301255 0.026632553 0.03548164
0.03957344 0.051335547 0.0402378 0.049859617 0.031254545 0.031143662 0.039250083 0.02567882
0.026374388 0.015791323 0.027996182 0.025343308 0.023910554 0.03376469 0.029301776 0.035750486
0.035340633 0.03681051 0.033421867 0.025975868 0.02844778 0.030232953 0.034064066 0.032485276
0.037337355 0.035231605 0.033213053 0.036624603 0.028082436 0.04796008 0.038177043 0.024761252
00000000: 89a8 b03c 0ee2 e93c 4e67 213d f018 ce3c
00000010: b2b1 d53c e952 0b3d 1d25 073d f3b1 003d
00000020: 7b17 143d 39df fe3c 8d67 253d e4ab 053d
00000030: f8f0 cc3c 71cc b53c 3315 013d ed8d 933c
00000040: 4252 e83c 6a12 1a3d 6601 2e3d 0f68 eb3c
00000050: f09c 9b3c f0df 8d3c cbae 2e3d 24da c83c
00000060: 311a 2c3d 0626 d63c ae7d 273d fe46 a43c
00000070: d40a 013d 797f 0c3d 832c da3c 3255 113d
00000080: c217 223d 3945 523d 64d0 243d 9939 4c3d
00000090: c404 003d fe20 ff3c b2c4 203d 645c d23c
000000a0: 1a0f d83c ce5c 813c 4058 e53c c59c cf3c
000000b0: 11e0 c33c d84c 0a3d 470a f03c 1a6f 123d
000000c0: 57c1 103d 9ec6 163d 5ee5 083d 58cb d43c
000000d0: 520b e93c 19ab f73c c386 0b3d 480f 053d
000000e0: 0eef 183d 044f 103d 690a 083d ae03 163d
000000f0: 230d e63c ca71 443d 885f 1c3d 1cd8 ca3c
